…
image_in (InputLayer)            (None, 200, 200, 5, 3 0                                            
____________________________________________________________________________________________________
batch_normalization_1 (BatchNorm (None, 200, 200, 5, 3 12          image_in[0][0]                   
____________________________________________________________________________________________________
conv3d_1 (Conv3D)                (None, 100, 100, 3, 5 410         batch_normalization_1[0][0]      
____________________________________________________________________________________________________
conv3d_2 (Conv3D)                (None, 50, 50, 2, 10) 1360        conv3d_1[0][0]                   
____________________________________________________________________________________________________
conv3d_3 (Conv3D)                (None, 25, 25, 1, 20) 5420        conv3d_2[0][0]                   
____________________________________________________________________________________________________
conv3d_4 (Conv3D)                (None, 13, 13, 1, 20) 10820       conv3d_3[0][0]                   
____________________________________________________________________________________________________
conv3d_5 (Conv3D)                (None, 7, 7, 1, 20)   10820       conv3d_4[0][0]                   
____________________________________________________________________________________________________
conv3d_6 (Conv3D)                (None, 4, 4, 1, 20)   10820       conv3d_5[0][0]                   
____________________________________________________________________________________________________
conv3d_7 (Conv3D)                (None, 2, 2, 1, 25)   13525       conv3d_6[0][0]                   
____________________________________________________________________________________________________
flatten_1 (Flatten)              (None, 100)           0           conv3d_7[0][0]                   
____________________________________________________________________________________________________
velocity_in (InputLayer)         (None, 2)             0                                            
____________________________________________________________________________________________________
concatenate_1 (Concatenate)      (None, 102)           0           flatten_1[0][0]                  
                                                                   velocity_in[0][0]                
____________________________________________________________________________________________________
batch_normalization_2 (BatchNorm (None, 102)           408         concatenate_1[0][0]              
____________________________________________________________________________________________________
dense_1 (Dense)                  (None, 50)            5150        batch_normalization_2[0][0]      
____________________________________________________________________________________________________
batch_normalization_3 (BatchNorm (None, 50)            200         dense_1[0][0]                    
____________________________________________________________________________________________________
dense_2 (Dense)                  (None, 25)            1275        batch_normalization_3[0][0]      
____________________________________________________________________________________________________
batch_normalization_4 (BatchNorm (None, 25)            100         dense_2[0][0]                    
____________________________________________________________________________________________________
dense_3 (Dense)                  (None, 2)             52          batch_normalization_4[0][0]      
====================================================================================================
Total params: 60,372
Trainable params: 60,012
Non-trainable params: 360
____________________________________________________________________________________________________

I'm training it at 0.0002 with a decay of 1e-5.  The accuracy increased fairly nicely, but is now jumping around between 80 and 90.  Some possible explanations are that:
…
batch_normalization_7 (BatchNorm (None, 200, 200, 5, 3 12          image_in[0][0]                   
____________________________________________________________________________________________________
conv3d_1 (Conv3D)                (None, 100, 100, 3, 5 410         batch_normalization_7[0][0]      
____________________________________________________________________________________________________
batch_normalization_6 (BatchNorm (None, 100, 100, 3, 5 20          conv3d_1[0][0]                   
____________________________________________________________________________________________________
conv3d_2 (Conv3D)                (None, 50, 50, 2, 10) 1360        batch_normalization_6[0][0]      
____________________________________________________________________________________________________
batch_normalization_5 (BatchNorm (None, 50, 50, 2, 10) 40          conv3d_2[0][0]                   
____________________________________________________________________________________________________
conv3d_3 (Conv3D)                (None, 25, 25, 1, 20) 5420        batch_normalization_5[0][0]      
____________________________________________________________________________________________________
batch_normalization_4 (BatchNorm (None, 25, 25, 1, 20) 80          conv3d_3[0][0]                   
____________________________________________________________________________________________________
conv3d_4 (Conv3D)                (None, 13, 13, 1, 30) 16230       batch_normalization_4[0][0]      
____________________________________________________________________________________________________
batch_normalization_3 (BatchNorm (None, 13, 13, 1, 30) 120         conv3d_4[0][0]                   
____________________________________________________________________________________________________
conv3d_5 (Conv3D)                (None, 7, 7, 1, 40)   32440       batch_normalization_3[0][0]      
____________________________________________________________________________________________________
batch_normalization_2 (BatchNorm (None, 7, 7, 1, 40)   160         conv3d_5[0][0]                   
____________________________________________________________________________________________________
conv3d_6 (Conv3D)                (None, 4, 4, 1, 30)   32430       batch_normalization_2[0][0]      
____________________________________________________________________________________________________
batch_normalization_1 (BatchNorm (None, 4, 4, 1, 30)   120         conv3d_6[0][0]                   
____________________________________________________________________________________________________
flatten_1 (Flatten)              (None, 480)           0           batch_normalization_1[0][0]      
____________________________________________________________________________________________________
velocity_in (InputLayer)         (None, 2)             0                                            
____________________________________________________________________________________________________
concatenate_1 (Concatenate)      (None, 482)           0           flatten_1[0][0]                  
                                                                   velocity_in[0][0]                
____________________________________________________________________________________________________
batch_normalization_10 (BatchNor (None, 482)           1928        concatenate_1[0][0]              
____________________________________________________________________________________________________
dense_1 (Dense)                  (None, 50)            24150       batch_normalization_10[0][0]     
____________________________________________________________________________________________________
batch_normalization_9 (BatchNorm (None, 50)            200         dense_1[0][0]                    
____________________________________________________________________________________________________
dense_2 (Dense)                  (None, 25)            1275        batch_normalization_9[0][0]      
____________________________________________________________________________________________________
batch_normalization_8 (BatchNorm (None, 25)            100         dense_2[0][0]                    
____________________________________________________________________________________________________
dense_3 (Dense)                  (None, 2)             52          batch_normalization_8[0][0]      
====================================================================================================
Total params: 116,547
Trainable params: 115,157
Non-trainable params: 1,390
____________________________________________________________________________________________________
0.31539732217788696

(Bear in mind that the timing at the bottom is flawed, because this model was already being trained at the time.  The actual time for this net is about 0.12s.)
…
